experiments/base/model 2.pth (torch, 124757 bytes, 2 tensors)

fc1.weight f4 [10, 3072]
0.0031116046 -0.0056276834 -0.009960694 -0.014711294 0.0005957916 -0.005269353 -0.009668427 -0.013719175
-0.0034289577 -0.022924539 -0.007338035 0.0063987887 -0.024008173 -0.019742845 -0.025705324 -0.02569231
-0.010749283 -0.0010485344 -0.014651311 -0.00271804 0.0046223504 -0.0007912178 -0.011534308 -0.001125136
-0.0026091135 -0.013505375 -0.0027658625 -0.025270069 0.0008462906 -0.0073133595 0.0075792666 0.0118626
-0.016291352 0.0014183946 -0.0061922874 -0.00204687 0.0019737678 -0.017243916 0.0037359248 -0.011433575
0.004425402 -0.02529023 -0.008987228 0.0033936796 0.010476758 -0.019081349 0.0005031357 -0.007521939
-0.0049172877 2.0085572e-05 -0.009203384 -0.006139071 -0.009560725 -0.026016476 0.004867366 0.0033876777
-0.00780863 -0.024441592 -0.013378679 -0.012968149 -0.0069977827 -0.0092294235 0.005276304 -0.016987203
-0.012481688 -0.020757647 -0.0070966533 0.0007368949 0.008264851 -0.009143505 0.0007263502 0.001307049
0.004713636 -0.013112489 -0.023856843 -0.021348333 -0.008502305 -0.020132637 -0.0016863683 -0.011337792
-0.018811245 -0.0018713417 -0.0001291815 0.0059803077 -0.00069863885 -0.023132987 0.004504755 -0.010009653
0.009038813 0.0063907458 -0.018395577 -0.012165577 -0.01137538 -0.02400671 -0.0069894968 0.005579831
0.0037557597 -0.0097242175 0.012904503 -0.019751469 -0.01075838 0.0030439107 -0.006310465 -0.010722032
-0.017619902 0.007829215 0.00865968 -0.0201628 -0.013042253 -0.010171759 0.0016773153 0.0077155074
-0.01923308 -0.019821338 -0.02155635 -0.0038614217 -0.00828601 -0.007141781 -0.017116021 0.0017705421
-0.004134493 0.009130769 0.0022638538 -0.01619473 -0.006010173 -0.0076069823 -0.02073294 -0.0015843177
0.009734503 0.0062764366 -0.0027190233 -0.0013426534 -0.0106637385 0.011867573 0.008569485 -0.00069582066
0.0011304127 0.0049944227 0.005618792 -0.022082781 -0.006843761 -0.01466753 -0.007981076 -0.016809717
-0.014432668 -0.0072335005 -0.007995677 0.0040372103 -0.018124614 -0.01486071 0.006028274 -0.008192412
-0.01403606 -0.01579238 0.009593247 -0.014005327 -0.01929919 0.00069717143 -0.007340052 0.005983696
0.013953822 -0.010282628 0.0010943498 0.0091204895 -0.021745319 -0.008569898 -0.0022578717 -0.01719619
-0.005627169 -0.0025933788 -0.0051281457 0.005972098 -0.004977617 -0.01946632 -0.01687279 -0.00023480266
-0.012714366 0.01031383 0.010869643 -0.0023108574 -0.009159422 -0.01903284 -0.0029250742 -0.01878344
-0.017915452 -0.016093636 -0.016196704 -0.00065608596 -0.017450385 0.004481765 0.013198279 0.015428724
-0.010598323 0.006947716 0.0063634636 -0.022978075 -0.022360696 -0.018892461 0.004065007 0.006295726
-0.009816396 0.0014246409 -0.000966241 0.0005878849 -0.015364431 0.009973362 -0.025314871 -0.0028103362
0.0021784832 -0.012940049 -0.01876788 -0.0099951215 -0.016693091 0.0106185945 -0.0028060584 0.0030596105
-0.0005314557 0.003525757 -0.011189284 0.00064066204 -0.004367425 -0.006662315 -0.022695234 -0.0022012051
0.010386582 -0.005400562 -0.013113363 0.010118503 -0.0030007896 -0.0027228096 -0.014215103 -0.015582343
-0.01483922 -0.0126766935 -0.00027646782 -0.009045408 -0.014495534 -0.001021009 -0.015751153 -0.025223417
-0.00712953 0.0016046719 0.0060322382 -0.003967101 -0.016104482 -0.018586854 -0.003695843 -0.008401882
0.0005804939 -0.009681458 -0.007901121 0.007614917 -0.0018889635 -0.0041348953 0.0005091326 0.011975061
00000000: 10ec 4b3b 6e68 b8bb 2e32 23bc a407 71bc
00000010: e62e 1c3a 89aa acbb 5268 1ebc 64c6 60bc
00000020: 5db8 60bb 3ecc bbbc e673 f0bb eeac d13b
00000030: caac c4bc bfbb a1bc f993 d2bc ae78 d2bc
00000040: c31d 30bc fa6e 89ba 0d0c 70bc 2521 32bb
00000050: 1677 973b ba69 4fba 65fa 3cbc 4d79 93ba
00000060: a9fd 2abb a645 5dbc 7943 35bb 2d03 cfbc
00000070: 9ad9 5d3a e8a4 efbb 7f5b f83b 5a5b 423c
00000080: 7175 85bc 6de9 b93a ace8 cabb c824 06bb
00000090: 545a 013b 1d43 8dbc 6bd6 743b e453 3bbc
000000a0: f602 913b 752d cfbc 2b3f 13bc 7f68 5e3b
000000b0: b5a6 2b3c 7d50 9cbc dee4 033a 997a f6bb
000000c0: 3321 a1bb 707d a837 cac9 16bc 432a c9bb
000000d0: 96a4 1cbc 8120 d5bc 6d7e 9f3b cd03 5e3b
000000e0: 89df ffbb bc39 c8bc 3f32 5bbc 5c78 54bc
000000f0: a84d e5bb 0237 17bc d9e4 ac3b bf28 8bbc
00000100: fe7f 4cbc f10b aabc 0b8b e8bb 2e2c 413a
00000110: 4c69 073c a4ce 15bc 8968 3e3a 4951 ab3a
00000120: d874 9a3b c4d5 56bc 6d6f c3bc b3e2 aebc
00000130: 404d 0bbc 33ed a4bc 2109 ddba 25c2 39bc
00000140: 0a1a 9abc cf47 f5ba e574 07b9 75f6 c33b
00000150: dc24 37ba 6481 bdbc a09c 933b 87ff 23bc
00000160: 8817 143c 7669 d13b 52b2 96bc 2152 47bc
00000170: cd5f 3abc b8a9 c4bc 2608 e5bb 04d7 b63b
00000180: 3123 763b 5352 1fbc 696d 533c d5cd a1bc
00000190: eb43 30bc 597c 473b 04c8 cebb 76ab 2fbc
000001a0: 9d57 90bc 1c46 003c 55e1 0d3c 752c a5bc
000001b0: 2daf 55bc 73a7 26bc 5dd9 db3a 5ed2 fc3b
000001c0: b18e 9dbc 5c60 a2bc f196 b0bc e80f 7dbb
000001d0: 0bc2 07bc 9a05 eabb e636 8cbc 8911 e83a
000001e0: a47a 87bb 3999 153c 2a5d 143b cfaa 84bc
000001f0: fcf0 c4bb fe43 f9bb 20d8 a9bc e1a8 cfba
00000200: 777d 1f3c 91aa cd3b a431 32bb f9fb afba
00000210: f6b6 2ebc 3570 423c 0667 0c3c bc67 36ba
00000220: 5b2a 943a 41a8 a33b d81d b83b f3e6 b4bc
00000230: a141 e0bb 1450 70bc 0fc3 02bc 88b4 89bc
00000240: ff76 6cbc 0007 edbb 4d00 03bc 934a 843b
00000250: 127a 94bc 567a 73bc d488 c53b 7739 06bc
00000260: 81f7 65bc 055f 81bc ff2c 1d3c 9976 65bc
00000270: 5619 9ebc 62c2 363a d284 f0bb e112 c43b
00000280: 929e 643c 7878 28bc 4970 8f3a 1b6e 153c
00000290: 3d23 b2bc c268 0cbc cdf8 13bb 06df 8cbc
000002a0: 1d64 b8bb adf5 29bb 010a a8bb 97b1 c33b
000002b0: 471b a3bb d577 9fbc ce38 8abc 5c35 76b9
000002c0: eb4f 50bc 57fb 283c 9616 323c c171 17bb
000002d0: 6611 16bc c2ea 9bbc 9ab2 3fbb bbdf 99bc
000002e0: 6dc3 92bc cdd6 83bc f3ae 84bc 2ffd 2bba
000002f0: 1cf4 8ebc c5db 923b 983d 583c c2c8 7c3c
00000300: 97a4 2dbc aba9 e33b 9a84 d03b 843c bcbc
00000310: c72d b7bc 5dc4 9abc c033 853b 614c ce3b
00000320: f3d4 20bc 04bb ba3a 564b 7dba 4a1c 1a3a
00000330: 18bb 7bbc 5067 233c 2261 cfbc 9e2d 38bb
00000340: e2c4 0e3b 8002 54bc 19bf 99bc 94c2 23bc
00000350: f3bf 88bc 9df9 2d3c d9e5 37bb bf83 483b
00000360: 6351 0bba 6310 673b 4253 37bc 1af2 273a
00000370: 9e1c 8fbb 8d4f dabb 5beb b9bc 1842 10bb
00000380: 7c2c 2a3c 33f7 b0bb 6ed9 56bc 14c8 253c
00000390: e5a8 44bb 2a71 32bb 77e6 68bc 154d 7fbc
000003a0: 3320 73bc e8b1 4fbc e2f2 90b9 3133 14bc
000003b0: ad7e 6dbc 61d3 85ba 9008 81bc 57a1 cebc
000003c0: d59e e9bb db53 d23a 15aa c53b 75fe 81bb
000003d0: 8ced 83bc 7543 98bc f535 72bb 0ca8 09bc
000003e0: 492c 183a fa9e 1ebc b473 01bc 8e86 f93b
000003f0: 1997 f7ba 047e 87bb 4f77 053a 0c33 443c

fc1.bias f4 [10]
-0.08191577 0.037378263 0.022877157 0.019715922 0.014714729 -0.023242544 0.02030793 0.020373724
-0.06755665 0.020161327
00000000: 75c3 a7bd f319 193d e068 bb3c 4983 a13c
00000010: 0c16 713c 2667 bebc d15c a63c cce6 a63c
00000020: 245b 8abd 5e29 a53c
