experiments/base/model.pth (torch, 124757 bytes, 2 tensors)

fc1.weight f4 [10, 3072]
0	0x3ca91e3f	0.020644305
1	0x3b969f9c	0.0045966636
2	0xbc515264	-0.012775991
3	0x3c4cce5d	0.012500373
4	0xbc9246c9	-0.017856019
5	0xbbb1d6ba	-0.0054272087
6	0xbca3508c	-0.019935869
7	0x3bc4abc6	0.0060019223
8	0xbca76a1b	-0.020436337
9	0xb8b9e958	-8.864951e-05
10	0xbc27db0b	-0.010245095
11	0xbc8c025c	-0.017090969
12	0xbb385be8	-0.0028130952
13	0xbc1928f1	-0.00934814
14	0xbc9457e9	-0.018108325
15	0xbc9dfd6e	-0.019285884
16	0xbb6108e0	-0.0034337565
17	0x3aa25cee	0.0012387314
18	0xbb12625d	-0.002233646
19	0xbcba126c	-0.022713862
20	0xbcb967ae	-0.022632446
21	0xbad4266d	-0.0016185768
22	0xbc8776b1	-0.016536089
23	0x3b9e7138	0.004835274
24	0xbcc33bed	-0.023832286
25	0xbc35ecd4	-0.0111038275
26	0xbafd3f2c	-0.0019321195
27	0xbc80a15d	-0.015701944
28	0x3c1f8368	0.00973592
29	0xbc3d8729	-0.011567869
30	0x39a7fbfe	0.0003204047
31	0x3c932657	0.017962618
32	0xba07ecdc	-0.0005185136
33	0xb91e9746	-0.00015124408
34	0xbbfce9aa	-0.0077182846
35	0x3c155587	0.00911463
36	0x3ca69540	0.02033484
37	0xbc4dce6e	-0.012561424
38	0x3c449aff	0.011999845
39	0x3a616de0	0.00085994415
40	0xbc9d528a	-0.019204397
41	0x3c02684c	0.007959437
42	0xbc9a723e	-0.018853303
43	0x3c0faa0d	0.008768571
44	0x3b0fd252	0.002194543
45	0xbb0e28f5	-0.0021691893
46	0xbc2a2ad2	-0.010386186
47	0xbaffd51e	-0.001951847
48	0xba9a1454	-0.0011755326
49	0xbae8af22	-0.0017752389
50	0x3b7bc1f0	0.0038415156
51	0x3bb1afda	0.0054225745
52	0xbc976ff2	-0.018485997
53	0xbc642ca9	-0.013926663
54	0xbc9214f0	-0.01783225
55	0xbb15f490	-0.0022881366
56	0x3c32cc27	0.0109129315
57	0xbb2077c8	-0.0024485458
58	0x3a0dfef2	0.0005416713
59	0x3c6c3c09	0.01441861
60	0x3b5d13a6	0.0033733635
61	0xbc52bcad	-0.012862367
62	0x3ca73049	0.020408766
63	0x3c2e812a	0.010650912
64	0xb97bc06a	-0.00024008905
65	0xbbec2926	-0.0072070537
66	0xbc0eca42	-0.008715214
67	0xbbf1b66b	-0.0073764822
68	0x3c959c60	0.018263042
69	0xbc4ee971	-0.012628899
70	0x3c180d94	0.009280581
71	0xbccaa6e6	-0.024737787
72	0xbc7bbbaf	-0.0153645715
73	0xbc96b699	-0.018397616
74	0xbc28243e	-0.010262547
75	0x39efe87d	0.0004575885
76	0x3b41692c	0.002951215
77	0xba6a00dd	-0.000892652
78	0xbcd1e326	-0.025621008
79	0x3b72cc09	0.0037047884
80	0xbbdd2f50	-0.006750025
81	0xbb9d7835	-0.0048055896
82	0xbcf844bb	-0.03030621
83	0xbccb4f1d	-0.024817998
84	0xbcb4a37a	-0.022050608
85	0xbce87ca6	-0.02837975
86	0xbc68a311	-0.014199034
87	0xbc3d1846	-0.011541432
88	0xbc983c4c	-0.01858344
89	0xbb8de4c1	-0.004330248
90	0x3c1eb14f	0.009685828
91	0x3bd17049	0.0063915593
92	0x3ba6577b	0.0050763465
93	0xbc3273fc	-0.010891911
94	0x3be78559	0.007065457
95	0x3d05ccee	0.03266614
96	0x3c08712b	0.008327763
97	0xbac10db1	-0.0014728812
98	0xbc268675	-0.010163893
99	0x3c1affa6	0.009460365
100	0xbbd63d10	-0.006538041
101	0xbc89918a	-0.016793031
102	0x3bf8db1a	0.0075944783
103	0x3c2ede38	0.010673098
104	0xbc51e4ad	-0.012810868
105	0xbbd4df00	-0.0064963102
106	0xbcc6cb08	-0.024266735
107	0xbc48ed16	-0.012263557
108	0xbc829beb	-0.015943488
109	0x3b81bd80	0.0039593577
110	0xbb884452	-0.004158535
111	0xbb2532be	-0.0025207247
112	0xbcd30c9e	-0.025762852
113	0xbc947d26	-0.018126082
114	0xbc963703	-0.018336779
115	0xbcddec90	-0.02709034
116	0xbc0d155b	-0.008611049
117	0x3c23a4af	0.009987994
118	0x3bd5035c	0.0065006446
119	0xbbaa1c2c	-0.0051913466
120	0xbcafbc65	-0.021452138
121	0xb9a760e0	-0.000319249
122	0xbaf3489e	-0.001856107
123	0xbc819f3d	-0.015823001
124	0xbbe1c88d	-0.0068903626
125	0xbc3cfeae	-0.01153533
126	0xbc9caf40	-0.019126534
127	0x3b844da3	0.0040375753
128	0xbc9323c0	-0.017961383
129	0xbcafbab2	-0.021451328
130	0xbcb92497	-0.022600455
131	0xbc14e6d3	-0.009088236
132	0x3aa8631b	0.0012846919
133	0x3b644c7d	0.003483563
134	0xbbbffbf9	-0.005858895
135	0xbb367f6a	-0.002784694
136	0xbcec2a01	-0.028828623
137	0xbca635ed	-0.020289386
138	0xbcbc526e	-0.022988524
139	0xbcfc9f97	-0.030837817
140	0xb957f006	-0.00020593414
141	0xb9c7d9ad	-0.0003811842
142	0xbb8187a7	-0.0039529386
143	0xbcfab16b	-0.030602178
144	0xbb9ce164	-0.004787611
145	0xbc32cc96	-0.010913035
146	0xbab58949	-0.0013850118
147	0xbc9b6a5d	-0.018971616
148	0x3c1229c6	0.008921092
149	0x3c4e81ea	0.012604216
150	0x3925d26e	0.00015814017
151	0x3c4fe6f6	0.012689343
152	0xbc11e1fd	-0.008903977
153	0xbbdb3ec3	-0.0066908314
154	0x3b6d8c05	0.0036246788
155	0xbc36d887	-0.011160023
156	0xbc59a7c8	-0.013284631
157	0xbc814359	-0.015779184
158	0x3b3a2158	0.0028401222
159	0x3c0f4b70	0.008746013
160	0xbc850c94	-0.01624135
161	0xbca399c5	-0.019970784
162	0xbb9ddadd	-0.0048173503
163	0xbba6557a	-0.0050761076
164	0x3c1fcc03	0.00975323
165	0xbb01f019	-0.0019826947
166	0x3c6e6e57	0.014552674
167	0xbc3225ad	-0.01087324
168	0xbcf504f8	-0.029909596
169	0xbbd557b3	-0.0065106987
170	0xbc8959b5	-0.016766408
171	0xbc1f984e	-0.009740902
172	0x3bbeafc6	0.0058192937
173	0xbafaae66	-0.0019125461
174	0x3ad510c8	0.0016255612
175	0xbca13888	-0.019680277
176	0xbcacc98c	-0.021092199
177	0xbcdfbab7	-0.027310712
178	0xbcb2751c	-0.021784358
179	0xbc9c33ad	-0.01906761
180	0xbab052cc	-0.001345241
181	0xbc475660	-0.0121665895
182	0x3b28becb	0.0025748487
183	0x3c504b85	0.012713318
184	0xbc1b9084	-0.009494904
185	0xbc0af556	-0.008481344
186	0xbc2ff9fa	-0.010740751
187	0xbc295c8f	-0.010337009
188	0xbc2ac927	-0.010423935
189	0xbb45fbcf	-0.0030209904
190	0xbc5e4b94	-0.013567824
191	0x3c0e554b	0.008687328
192	0x3c656789	0.0140017355
193	0x3baa60e2	0.0051995376
194	0xbc6bb880	-0.01438725
195	0x3b9f44f9	0.004860517
196	0xb9503c78	-0.00019858952
197	0xbc201c2d	-0.009772343
198	0xbb56a89d	-0.003275431
199	0x3c1c7d22	0.009551318
200	0xbbb2fa12	-0.0054619396
201	0xbca3e71d	-0.020007664
202	0xbcbc33b7	-0.022973878
203	0xbb6bd64e	-0.003598589
204	0xbb6ba7f8	-0.0035958271
205	0x3a8a8ef7	0.0010571171
206	0xbcf6c591	-0.030123504
207	0xbd0be417	-0.03415307
208	0xbb70dd55	-0.0036753018
209	0xb94bf88c	-0.0001945218
210	0xbcd0ebf8	-0.025503144
211	0xbc9c3158	-0.019066498
212	0xbb987fb5	-0.0046538957
213	0x3c099a10	0.008398548
214	0xba66b9c6	-0.0008801486
215	0xbcf5ff95	-0.030029098
216	0xbc1bcc4e	-0.009509159
217	0x3c9841ed	0.018586123
218	0x3c688a09	0.014193066
219	0x3c45af76	0.012065759
220	0xbc83a92b	-0.016071877
221	0xbbf3a8ce	-0.0074358946
222	0xbac2536a	-0.0014825885
223	0x3c7239ff	0.014784335
224	0x3beff8c2	0.0073233554
225	0x3c3ddde7	0.01158855
226	0x3c41be79	0.011825197
227	0xbcb2af5e	-0.021812137
228	0xbc755249	-0.014973232
229	0x3c2e2aae	0.010630293
230	0x3c80eba8	0.01573737
231	0x3be40ce7	0.006959546
232	0xbad9f1a8	-0.0016627805
233	0x3aad0b46	0.0013202212
234	0xbc2297d9	-0.009923899
235	0xbcb9ed4e	-0.022696164
236	0x38b37a44	8.558159e-05
237	0xbc876e19	-0.01653199
238	0xbcd95773	-0.026530957
239	0xbd199445	-0.037494916
240	0xbce5cdd6	-0.028052252
241	0xbc1b991d	-0.009496954
242	0xbc8a7be6	-0.016904783
243	0xbc9cff3e	-0.019164678
244	0xbb6d542e	-0.0036213505
245	0xbc6ba15b	-0.014381732
246	0xbc07ac34	-0.0082808025
247	0xbcd1a97c	-0.025593512
248	0x3bb08042	0.0053863833
249	0x3be8b86f	0.0071020643
250	0x3c20e699	0.009820604
251	0x3c9f8502	0.019472603
252	0x3b2a61de	0.0025998275
253	0xbc8ddc16	-0.01731686
254	0xbccf2db0	-0.02529034
255	0x398a4186	0.0002637023

fc1.bias f4 [10]
0	0xbe85437a	-0.26028043
1	0x3e0d2b2f	0.13786004
2	0x3db21d41	0.08696986
3	0x3dc37da6	0.0954545
4	0x3db97b98	0.09056777
5	0xbdb16ec0	-0.08663702
6	0x3e1b2268	0.15149844
7	0x3ce4092d	0.027836407
8	0xbe7cafdd	-0.24676462
9	0x3c175526	0.00923661
